dropout_4 (Dropout)          (None, 6, 6, 256)         0         
_________________________________________________________________
flatten_1 (Flatten)          (None, 9216)              0         
_________________________________________________________________
dense_1 (Dense)              (None, 512)               4719104   
_________________________________________________________________
batch_normalization_8 (Batch (None, 512)               2048      
_________________________________________________________________
dropout_5 (Dropout)          (None, 512)               0         
_________________________________________________________________
dense_2 (Dense)              (None, 256)               131328    
_________________________________________________________________
batch_normalization_9 (Batch (None, 256)               1024      
_________________________________________________________________
dropout_6 (Dropout)          (None, 256)               0         
_________________________________________________________________
dense_3 (Dense)              (None, 5)                 1285      
=================================================================
Total params: 6,021,509
Trainable params: 6,018,117
Non-trainable params: 3,392


上面是模型概況
_________________________________________________________________
WARNING:tensorflow:From D:\Anaconda3\envs\AI108-2\lib\site-packages\keras\optimizers.py:790: The name tf.train.Optimizer is deprecated. Please use tf.compat.v1.train.Optimizer instead.
…
82/82 [==============================] - 8s 92ms/step - loss: 0.1356 - acc: 0.9543 - val_loss: 0.1510 - val_acc: 0.9592

Epoch 00050: val_acc improved from 0.95238 to 0.95918, saving model to best_modelP.h5

runfile('D:/AIpython/pokemon.py', wdir='D:/AIpython')
D:\AIpython\dataset1\dataset\Mewtwo\ed9eb0e7d3494c6992e06196f5b7cc05.svg [ERROR] can't read the file
DONE
_________________________________________________________________
Layer (type)                 Output Shape              Param #   
=================================================================
conv2d_8 (Conv2D)            (None, 96, 96, 32)        896       
_________________________________________________________________
batch_normalization_10 (Batc (None, 96, 96, 32)        128       
_________________________________________________________________
max_pooling2d_5 (MaxPooling2 (None, 48, 48, 32)        0         
_________________________________________________________________
dropout_7 (Dropout)          (None, 48, 48, 32)        0         
_________________________________________________________________
conv2d_9 (Conv2D)            (None, 48, 48, 64)        18496     
_________________________________________________________________
batch_normalization_11 (Batc (None, 48, 48, 64)        256       
_________________________________________________________________
conv2d_10 (Conv2D)           (None, 48, 48, 64)        36928     
_________________________________________________________________
batch_normalization_12 (Batc (None, 48, 48, 64)        256       
_________________________________________________________________
max_pooling2d_6 (MaxPooling2 (None, 24, 24, 64)        0         
_________________________________________________________________
dropout_8 (Dropout)          (None, 24, 24, 64)        0         
_________________________________________________________________
conv2d_11 (Conv2D)           (None, 24, 24, 128)       73856     
_________________________________________________________________
batch_normalization_13 (Batc (None, 24, 24, 128)       512       
_________________________________________________________________
conv2d_12 (Conv2D)           (None, 24, 24, 128)       147584    
_________________________________________________________________
batch_normalization_14 (Batc (None, 24, 24, 128)       512       
_________________________________________________________________
max_pooling2d_7 (MaxPooling2 (None, 12, 12, 128)       0         
_________________________________________________________________
dropout_9 (Dropout)          (None, 12, 12, 128)       0         
_________________________________________________________________
conv2d_13 (Conv2D)           (None, 12, 12, 256)       295168    
_________________________________________________________________
batch_normalization_15 (Batc (None, 12, 12, 256)       1024      
_________________________________________________________________
conv2d_14 (Conv2D)           (None, 12, 12, 256)       590080    
_________________________________________________________________
batch_normalization_16 (Batc (None, 12, 12, 256)       1024      
_________________________________________________________________
max_pooling2d_8 (MaxPooling2 (None, 6, 6, 256)         0         
_________________________________________________________________
dropout_10 (Dropout)         (None, 6, 6, 256)         0         
_________________________________________________________________
flatten_2 (Flatten)          (None, 9216)              0         
_________________________________________________________________
dense_4 (Dense)              (None, 512)               4719104   
_________________________________________________________________
batch_normalization_17 (Batc (None, 512)               2048      
_________________________________________________________________
dropout_11 (Dropout)         (None, 512)               0         
_________________________________________________________________
dense_5 (Dense)              (None, 256)               131328    
_________________________________________________________________
batch_normalization_18 (Batc (None, 256)               1024      
_________________________________________________________________
dropout_12 (Dropout)         (None, 256)               0         
_________________________________________________________________
dense_6 (Dense)              (None, 5)                 1285      
=================================================================
Total params: 6,021,509
Trainable params: 6,018,117
Non-trainable params: 3,392
_________________________________________________________________
Epoch 1/50
264/264 [==============================] - 27s 102ms/step - loss: 0.8546 - acc: 0.7256 - val_loss: 0.3601 - val_acc: 0.8980

Epoch 00001: val_acc improved from -inf to 0.89796, saving model to best_modelP.h5
…
